==========================================================================================
Layer (type:depth-idx)                   Output Shape              Param #
==========================================================================================
GRU                                      [128, 200, 1]             --
├─GRU: 1-1                               [128, 200, 512]           4,927,488
├─Conv1DModel: 1-2                       [128, 200, 1]             --
│    └─ModuleList: 2-7                   --                        (recursive)
│    │    └─Conv1d: 3-1                  [128, 256, 200]           393,472
│    └─GELU: 2-2                         [128, 256, 200]           --
│    └─ModuleList: 2-7                   --                        (recursive)
│    │    └─Conv1d: 3-2                  [128, 64, 200]            49,216
│    └─GELU: 2-4                         [128, 64, 200]            --
│    └─ModuleList: 2-7                   --                        (recursive)
│    │    └─Conv1d: 3-3                  [128, 16, 200]            3,088
│    └─GELU: 2-6                         [128, 16, 200]            --
│    └─ModuleList: 2-7                   --                        (recursive)
│    │    └─Conv1d: 3-4                  [128, 1, 200]             49
│    │    └─Sigmoid: 3-5                 [128, 1, 200]             --
==========================================================================================
Total params: 5,373,313
Trainable params: 5,373,313
Non-trainable params: 0
Total mult-adds (G): 137.56
==========================================================================================
Input size (MB): 65.54
Forward/backward pass size (MB): 173.88
Params size (MB): 21.49
Estimated Total Size (MB): 260.90
…
