Using cuda
==========================================================================================
Layer (type:depth-idx)                   Output Shape              Param #
==========================================================================================
Conv1DModel                              [512, 200, 1]             --
├─ModuleList: 1-9                        --                        (recursive)
│    └─Conv1d: 2-1                       [512, 512, 200]           983,552
├─GELU: 1-2                              [512, 512, 200]           --
├─ModuleList: 1-9                        --                        (recursive)
│    └─Conv1d: 2-2                       [512, 256, 200]           393,472
├─GELU: 1-4                              [512, 256, 200]           --
├─ModuleList: 1-9                        --                        (recursive)
│    └─Conv1d: 2-3                       [512, 128, 200]           98,432
├─GELU: 1-6                              [512, 128, 200]           --
├─ModuleList: 1-9                        --                        (recursive)
│    └─Conv1d: 2-4                       [512, 64, 200]            24,640
├─GELU: 1-8                              [512, 64, 200]            --
├─ModuleList: 1-9                        --                        (recursive)
│    └─Conv1d: 2-5                       [512, 1, 200]             193
│    └─Sigmoid: 2-6                      [512, 1, 200]             --
==========================================================================================
Total params: 1,500,289
Trainable params: 1,500,289
Non-trainable params: 0
Total mult-adds (G): 153.63
==========================================================================================
Input size (MB): 262.14
Forward/backward pass size (MB): 787.25
Params size (MB): 6.00
Estimated Total Size (MB): 1055.40
…
