Using cuda
==========================================================================================
Layer (type:depth-idx)                   Output Shape              Param #
==========================================================================================
GRU                                      [512, 200, 1]             --
├─GRU: 1-1                               [512, 200, 256]           1,184,256
├─Sequential: 1-2                        [512, 200, 1]             --
│    └─Linear: 2-1                       [512, 200, 64]            16,448
│    └─Dropout: 2-2                      [512, 200, 64]            --
│    └─GELU: 2-3                         [512, 200, 64]            --
│    └─Linear: 2-4                       [512, 200, 16]            1,040
│    └─Dropout: 2-5                      [512, 200, 16]            --
│    └─GELU: 2-6                         [512, 200, 16]            --
│    └─Linear: 2-7                       [512, 200, 1]             17
│    └─Sigmoid: 2-8                      [512, 200, 1]             --
==========================================================================================
Total params: 1,201,761
Trainable params: 1,201,761
Non-trainable params: 0
Total mult-adds (G): 121.28
==========================================================================================
Input size (MB): 262.14
Forward/backward pass size (MB): 276.07
Params size (MB): 4.81
Estimated Total Size (MB): 543.02
…
