Using cuda
==========================================================================================
Layer (type:depth-idx)                   Output Shape              Param #
==========================================================================================
LSTM                                     [256, 200, 1]             --
├─LSTM: 1-1                              [256, 200, 256]           1,579,008
├─Sequential: 1-2                        [256, 200, 1]             --
│    └─Linear: 2-1                       [256, 200, 64]            16,448
│    └─Dropout: 2-2                      [256, 200, 64]            --
│    └─GELU: 2-3                         [256, 200, 64]            --
│    └─Linear: 2-4                       [256, 200, 16]            1,040
│    └─Dropout: 2-5                      [256, 200, 16]            --
│    └─GELU: 2-6                         [256, 200, 16]            --
│    └─Linear: 2-7                       [256, 200, 1]             17
│    └─Sigmoid: 2-8                      [256, 200, 1]             --
==========================================================================================
Total params: 1,596,513
Trainable params: 1,596,513
Non-trainable params: 0
Total mult-adds (G): 80.85
==========================================================================================
Input size (MB): 131.07
Forward/backward pass size (MB): 138.04
Params size (MB): 6.39
Estimated Total Size (MB): 275.49
…
